model.pth (torch, 250031 bytes, 10 tensors)

convolutional_layers.0.weight f4 [6, 1, 5, 5]
0	0xbc1918ec	-0.009344321
1	0xbeaccb71	-0.33748963
2	0xbea7eb26	-0.32796592
3	0xbd866f59	-0.06564207
4	0xbd77c17f	-0.060487267
5	0xbea684ca	-0.32523185
6	0xbe7238e2	-0.23654512
7	0xbed2b29d	-0.41151896
8	0xbe8d3927	-0.27582666
9	0xbebfc170	-0.3745227
10	0xbe4b3061	-0.19842674
11	0xbea84f46	-0.3287298
12	0xbedddc6a	-0.43332225
13	0xbedb093d	-0.42780486
14	0xbecb6ffa	-0.3973387
15	0xbdaf4570	-0.08558166
16	0xbe0a47fa	-0.1350402
17	0xbec4ce3a	-0.38438588
18	0xbed7f077	-0.42175648
19	0xbecc9788	-0.3995936
20	0xbe441eae	-0.19152328
21	0xbe942a13	-0.2893835
22	0xbe70bf43	-0.2351046
23	0xbe329296	-0.1743873
24	0xbead9123	-0.33899793
25	0xbe28f1b7	-0.16498457
26	0xbcbf4e6a	-0.02335282
27	0x3d834c20	0.06411004
28	0xbd376d1a	-0.04478178
29	0x3dca96c6	0.09892039
30	0xbd8838b0	-0.06651437
31	0x3e20bc7b	0.156969
32	0xbe0305dc	-0.12795204
33	0x3d07cb79	0.03315303
34	0xbe8ba00d	-0.27270547
35	0x3d2653f0	0.040607393
36	0x3e5c7efc	0.21532816
37	0xbe2cb93b	-0.16867535
38	0x3dc4b90e	0.09605609
39	0xbe1b6c7a	-0.151781
40	0x3d61bbfd	0.05511092
41	0x3d6c482b	0.057686012
42	0xbce22440	-0.027605176
43	0xbe50fd0d	-0.20409031
44	0xbe15b56e	-0.14619991
45	0x3e0be2e2	0.13660768
46	0x3e5b4acf	0.21415256
47	0x3e01b560	0.12666845
48	0x3e44d95d	0.19223543
49	0x3e51182a	0.20419374
50	0xbd82488c	-0.063614935
51	0xbe209e21	-0.15685321
52	0xbe6f0203	-0.23340611
53	0xbe9ac1e3	-0.3022605
54	0xbe7936db	-0.24337332
55	0xbd0bbeba	-0.034117438
56	0xbdf5a44e	-0.11994229
57	0xbdac92bf	-0.08426427
58	0xbad13e98	-0.0015964089
59	0xbe2579b0	-0.16159701
60	0x3cc696d5	0.024241844
61	0xbdab9eb4	-0.083798796
62	0xbe88a809	-0.266907
63	0xbe9faada	-0.31185037
64	0xbe2ca07c	-0.16858095
65	0xbe0fcaf4	-0.14042264
66	0xbe99c0a9	-0.300298
67	0xbea3d6b4	-0.31999743
68	0xbea38925	-0.3194057
69	0xbd0f9ffd	-0.035064686
70	0xbe170089	-0.14746298
71	0xbe9e949f	-0.30972764
72	0xbd0294a0	-0.03188002
73	0xbe58aeac	-0.21160382
74	0x3c8bab7d	0.017049545
75	0xbdca7b9d	-0.098868586
76	0xbec98021	-0.39355567
77	0xbe539bd7	-0.20664917
78	0xbe5e6cb3	-0.21721153
79	0xbe85f6ba	-0.261648
80	0xbebd2f70	-0.36950254
81	0xbed3f661	-0.4139891
82	0xbd25838e	-0.040408663
83	0xbec3d125	-0.38245502
84	0xbec7c835	-0.39019933
85	0xbdccc430	-0.09998357
86	0xbe933fc9	-0.28759602
87	0xbda555c7	-0.08073001
88	0xbe9ff169	-0.3123887
89	0xbce725f2	-0.028216336
90	0xbeb676fb	-0.3563765
91	0xbeb41d2a	-0.351785
92	0xbe33ae6e	-0.17547008
93	0xbe974353	-0.29543552
94	0xbdb6bca7	-0.08922701
95	0xbce743b2	-0.028230522
96	0xbd9bfec5	-0.07616953
97	0x3dc80ee3	0.097684644
98	0xbd3a5e09	-0.045499835
99	0xbcd2da21	-0.025738778
100	0xbe59527e	-0.21222875
101	0x3d079c3d	0.033107985
102	0xbe9931d2	-0.29920822
103	0xbe9d7b00	-0.30757904
104	0xbe5f323f	-0.21796511
105	0xbe9dbad3	-0.30806598
106	0xbe9b869e	-0.30376142
107	0xbe22e221	-0.15906574
108	0xbd892bf3	-0.06697836
109	0xbbf0c451	-0.0073476215
110	0x3d0937d5	0.03350051
111	0xbd4853a4	-0.04890789
112	0xbebcd1c0	-0.36878777
113	0xbdfb4220	-0.12268472
114	0xbeaf54f5	-0.34244505
115	0xbdfb1123	-0.12259128
116	0xbe387c96	-0.18016276
117	0xbd5e9f5d	-0.0543512
118	0xbea16c93	-0.31528148
119	0xbe535919	-0.20639457
120	0xbe793cf4	-0.24339658
121	0xbe30cf61	-0.17266609
122	0xbe883276	-0.26601
123	0x3d5ba584	0.053624645
124	0xbcd4e774	-0.025989272
125	0x3bf1d32a	0.007379909
126	0xbc8c14e5	-0.017099807
127	0xbd930b94	-0.07179943
128	0x3db26fb4	0.08712712
129	0xbe39e924	-0.18155342
130	0x3df8e99f	0.12153935
131	0xbe0edf4f	-0.13952373
132	0x3c001f2a	0.00781993
133	0xbd4a89d7	-0.04944786
134	0x3e548390	0.20753312
135	0x3dd93253	0.10605302
136	0xbe0d29d7	-0.13785492
137	0x3e44eaa1	0.19230129
138	0x3dec0a5c	0.115254134
139	0x3e1b6715	0.15176041
140	0xbe1e9ba7	-0.15489064
141	0x3e523141	0.20526601
142	0xbd1de513	-0.03854854
143	0xbd89a1f7	-0.067203455
144	0xbe30d9c1	-0.17270567
145	0x3dc267c6	0.094924495
146	0x3e1d57ba	0.15365496
147	0x3e0b961d	0.13631482
148	0xbc8330ad	-0.016014421
149	0xbe1af8de	-0.15133998

convolutional_layers.0.bias f4 [6]
0	0x3e321b76	0.17393288
1	0x3e969cb9	0.29416445
2	0xbdc487c5	-0.095962085
3	0x3e8fcea1	0.28087333
4	0x3e4aacbd	0.19792457
5	0xbdf1b219	-0.118015476

convolutional_layers.3.weight f4 [16, 6, 5, 5]
0	0x3c440457	0.011963925
1	0xbdc93dcd	-0.09826241
2	0xbdd90cb3	-0.10598125
3	0x3d415409	0.047199283
4	0xbd5d7010	-0.05406195
5	0xbb1552aa	-0.0022784867
6	0x3da5a478	0.080880105
7	0x3dd7fd04	0.10546306
8	0x3d9a2c01	0.07527924
9	0x3da10ca5	0.0786374
10	0xba66e3b2	-0.0008807733
11	0x3d6cb187	0.05778649
12	0x3d5117ad	0.05104797
13	0x3c885869	0.01664372
14	0x3dce8974	0.10084811
15	0xbc9c2c3a	-0.019064058
16	0x3a62aca2	0.000864694
17	0x3c90c54d	0.017672205
18	0x3dfb0a65	0.12257842
19	0x3c7e4b92	0.015520947
20	0xbdcd8f70	-0.10037124
21	0xbdc807eb	-0.09767135
22	0xbcf0b194	-0.02938155
23	0x3dc7d186	0.0975676
24	0x3daae98b	0.08345326
25	0xbd8b0626	-0.06788282
26	0xbd3a1188	-0.045426875
27	0xbd1bb46c	-0.03801386
28	0x3d20dbb2	0.039272018
29	0xbc35a0d5	-0.011085709
30	0xbca88db1	-0.020575376
31	0x3d5b2010	0.053497374
32	0xbd189344	-0.03724982
33	0x3d6dab17	0.058024492
34	0xbbf43ba1	-0.0074533974
35	0x3d8be34d	0.068304636
36	0x3d46690d	0.048440028
37	0xbc24ad3b	-0.010051067
38	0xbda7c2d3	-0.08191457
39	0xbd9489af	-0.072528236
40	0xbd98fdd2	-0.074702874
41	0x3cab8080	0.020935297
42	0x3c124587	0.008927709
43	0xbd8bd091	-0.0682689
44	0xbd2771b0	-0.040879905
45	0xbdac94ac	-0.084267944
46	0xbda2329d	-0.0791981
47	0xbd5351eb	-0.051591795
48	0xba4f4ad4	-0.00079075736
49	0xbdbb5d62	-0.09148671
50	0xbd9f3a69	-0.07774813
51	0x3d2ede36	0.042692386
52	0xbcd1bfb7	-0.025604112
53	0x3be3bce5	0.006950008
54	0x3d5dda7a	0.054163434
55	0xbd49b7c0	-0.049247503
56	0xbd728aed	-0.05921452
57	0x3da5aae2	0.08089234
58	0xbd858c79	-0.06520934
59	0xbcaced43	-0.021109229
60	0xbbd9cf9c	-0.0066470634
61	0x3d0bedf0	0.03416246
62	0xbd809fac	-0.06280455
63	0x3db7ccc3	0.08974602
64	0x3defd71b	0.1171095
65	0xbd9cfdf7	-0.076656274
66	0xbc552851	-0.0130101
67	0x3cf000d6	0.029297274
68	0x3dc6187a	0.09672637
69	0x3cbcf843	0.0230676
70	0x3d7a448f	0.06110054
71	0xbccc5c2c	-0.024946295
72	0x3c49b3a8	0.0123109
73	0x3c9e6da5	0.019339392
74	0x3d824232	0.06360282
75	0x3c945e6f	0.018111436
76	0x3cee095f	0.029057203
77	0xbdb772cd	-0.089574434
78	0xbd1542bb	-0.036440592
79	0x3d2c0ecc	0.0420063
80	0xbd8eeb25	-0.06978444
81	0x3c881847	0.016613139
82	0x3c077f08	0.008270033
83	0xbd109eb4	-0.0353076
84	0xbbc7256f	-0.0060774605
85	0x3dbda71c	0.09260389
86	0xbd1dbce4	-0.03851022
87	0x3cdc70cd	0.026909256
88	0x3d4e3da4	0.050351754
89	0x3db5d41a	0.08878346
90	0xbd9f8ccc	-0.07790527
91	0xbda524ff	-0.08063697
92	0xbca1408c	-0.019684099
93	0x3d505d95	0.050870497
94	0x3de2f40b	0.11081704
95	0xbd253eee	-0.040343218
96	0x3cb334fe	0.021875855
97	0xbd8dd294	-0.0692493
98	0xbd51892b	-0.051156204
99	0x3df9f922	0.122057214
100	0xbda6692a	-0.08125527
101	0x3c3148bb	0.010820563
102	0xbca840cc	-0.02053871
103	0xbd2e602c	-0.042572185
104	0x3bc19105	0.0059071803
105	0x3d3b6fc3	0.04576088
106	0x3d6198d8	0.055077404
107	0x3c9a9855	0.018871466
108	0x3d862f2a	0.065519646
109	0x3db518b4	0.08842602
110	0x3cdb1a87	0.026746048
111	0x3c8e4997	0.017369075
112	0xbc51066e	-0.012757881
113	0x3ddadae3	0.106862806
114	0x3db2eede	0.087369666
115	0xbc6ce4df	-0.014458864
116	0x3cc0c4b8	0.023531303
117	0xbd734649	-0.0593932
118	0xbd6cb894	-0.057793215
119	0x3d1c0df6	0.03809925
120	0xbd24234b	-0.04007272
121	0xbdb9352d	-0.090433456
122	0xbd439cae	-0.047756843
123	0x3da4f58f	0.08054649
124	0x3d741924	0.05959429
125	0xbd7ce3ee	-0.06174081
126	0xbd818fe9	-0.06326277
127	0xbdaa082b	-0.08302339
128	0x3d06b768	0.032889754
129	0xbd596e65	-0.053083796
130	0x3c5de0df	0.013542383
131	0x3cf2fb17	0.029660745
132	0x3c73baac	0.014876049
133	0x3c4f6d96	0.012660405
134	0x3d7810db	0.06056295
135	0x3d49c02f	0.049255546
136	0xbd7274ec	-0.059193537
137	0xbc15a557	-0.009133658
138	0x3d77faa1	0.060541753
139	0xbcfb68f8	-0.030689701
140	0x3d790b53	0.060801815
141	0xbd45e49d	-0.048313726
142	0x3d71a16b	0.05899183
143	0xbc477a74	-0.012175191
144	0x3d63e1a9	0.05563513
145	0xbda762c4	-0.08173135
146	0x3d955ca2	0.07293059
147	0xbd3f20cb	-0.046662133
148	0x3c996c95	0.018728534
149	0xbcd405b1	-0.02588162
150	0x3de71e63	0.11285093
151	0xbda97d8d	-0.082759
152	0xbdd78d5f	-0.10525011
153	0xbd3fb0e5	-0.04679956
154	0x3a1a3913	0.00058831385
155	0x3c24e3b0	0.010064051
156	0x3bdd45fb	0.006752727
157	0xbb601256	-0.0034190617
158	0xbd74b47c	-0.059742436
159	0x3ca86b0f	0.020558862
160	0xbd2bb663	-0.041921984
161	0xbdaa9a74	-0.08330241
162	0x3b0e1f02	0.0021685963
163	0x3cc85fc3	0.024459725
164	0x3d8894de	0.06669019
165	0xbb16218b	-0.0022908177
166	0x3c35c75a	0.011094892
167	0x3dd756f6	0.10514633
168	0x3da3f8d3	0.08006444
169	0xbd88ffc7	-0.06689411
170	0x3da256d3	0.07926717
171	0x3dc11e39	0.09429593
172	0x3df4a407	0.11945348
173	0xbc322ac4	-0.010874454
174	0xbd84638c	-0.064642996
175	0x3d09545b	0.033527713
176	0xbd42cc76	-0.04755827
177	0xbb77a3d0	-0.003778685
178	0xbd0872d3	-0.03331263
179	0xbd7c0665	-0.061529536
180	0xbd7b8822	-0.061409123
181	0x3abfb9f4	0.0014627562
182	0xbd5aad8e	-0.05338817
183	0xbd362fdd	-0.04447924
184	0xbd90af98	-0.07064742
185	0x3d866d50	0.065638185
186	0x3c769c48	0.015051909
187	0xbd11fe32	-0.03564281
188	0x3d715727	0.058921006
189	0xbc88f960	-0.016720474
190	0xbda29929	-0.07939369
191	0x3b7bfdc6	0.0038450821
192	0x3b99b90f	0.00469125
193	0xbdb456c9	-0.088056155
194	0x3d4a4f86	0.049392246
195	0xbc494ef8	-0.012286894
196	0xbd046946	-0.03232696
197	0x3d4e8240	0.050417185
198	0xbd99ccfd	-0.075098015
199	0xbda9eddb	-0.082973205
200	0xbd5fb752	-0.054618187
201	0x3cef8f47	0.029243125
202	0xbdb54a3b	-0.08852049
203	0x3c5b3fa2	0.01338187
204	0xbcc2b8b9	-0.023769723
205	0x3da0de92	0.07854952
206	0x3d4b855b	0.049687725
207	0xbd69259b	-0.05692063
208	0x3cc184b3	0.023622846
209	0x3d177e1a	0.036985494
210	0x3d991fae	0.074767455
211	0xbc8235ab	-0.015894732
212	0xbd6afb2f	-0.057368454
213	0x3cc85e6a	0.024459083
214	0x3dc43e1d	0.0958216
215	0xbcfdc42d	-0.030977333
216	0xbc0fd671	-0.008779154
217	0xbb6e52f0	-0.0036365353
218	0x3dee48b3	0.1163496
219	0x3d2a51c5	0.041581888
220	0xbc12efde	-0.008968322
221	0x3cbaeb87	0.022817386
222	0x3daed91d	0.08537505
223	0x3d6a3d8c	0.057187602
224	0xbd3ffb59	-0.046870563
225	0xbc8f89cf	-0.017521767
226	0xbd741a74	-0.05959554
227	0x3d37e6ec	0.04489796
228	0xbcdb6256	-0.026780289
229	0x3cd44d79	0.025915848
230	0xbc080482	-0.008301856
231	0x3d07c370	0.033145368
232	0xbbad003f	-0.0052795704
233	0x3d308f3d	0.043105353
234	0x3d8d9f48	0.06915146
235	0x3d8e7f8c	0.069579214
236	0xbd3c8a72	-0.04603047
237	0xbbdc2af2	-0.0067189867
238	0x3d827aa7	0.0637105
239	0xbba90903	-0.005158545
240	0xbd91b9cb	-0.07115515
241	0xbd94680c	-0.07246408
242	0xbc1aed5c	-0.009456005
243	0x3ca1b818	0.019741103
244	0x3d9ee0a8	0.077576935
245	0x3daca7a4	0.084304124
246	0x3cbd005e	0.023071464
247	0x3d938aa8	0.07204181
248	0x39677326	0.00022072773
249	0x3d383983	0.044976722
250	0xbcb20153	-0.021729147
251	0xbd3c36f5	-0.04595085
252	0xbd9c7ded	-0.07641206
253	0xbdad5805	-0.08464054
254	0xbda87196	-0.0822479
255	0xbc5e4d6c	-0.0135682635

convolutional_layers.3.bias f4 [16]
0	0xbd0f2323	-0.03494562
1	0xbd4026a2	-0.046911843
2	0xbd73380d	-0.059379626
3	0x3d8f7c3a	0.07006116
4	0x3c1379a8	0.009001173
5	0xbda695b3	-0.081340216
6	0xbccd3919	-0.02505164
7	0x3d679976	0.056542836
8	0x3c8f835c	0.017518692
9	0x3b4c9ac7	0.0031220184
10	0x3d0a1709	0.033713374
11	0x3d5904e6	0.052983187
12	0x3d919f4f	0.07110464
13	0xbd07f8d4	-0.033196285
14	0xbd934e4f	-0.071926706
15	0xbd939a5a	-0.072071746

fc_layers.0.weight f4 [120, 400]
0	0x3c76fc4f	0.0150748035
1	0x3d7126b3	0.058874797
2	0x3ca8ebf3	0.020620322
3	0x3c3aef22	0.011409553
4	0xbd11179f	-0.035422917
5	0x3d01c5e9	0.031682882
6	0x3d6c6354	0.057711914
7	0xbbf9edeb	-0.007627239
8	0x3bfd6cfa	0.0077339383
9	0xbd633a93	-0.055475783
10	0xbd368b55	-0.04456647
11	0x3d3b214f	0.045686062
12	0x3cc4c8d8	0.024021551
13	0x3bd3650c	0.0064512547
14	0x3d0249c6	0.031808637
15	0xbd0322d8	-0.03201565
16	0x3cb03ac2	0.021512393
17	0xbc8c84e6	-0.017153215
18	0xbcdda007	-0.027053846
19	0xbd51a132	-0.05117912
20	0x3cb59532	0.022165868
21	0x3ca78f56	0.02045409
22	0x3c317b6f	0.0108326515
23	0x3d22653f	0.039647337
24	0xb9f62701	-0.00046949837
25	0xbba80df4	-0.0051286165
26	0xbd00b311	-0.03142077
27	0x3d18419e	0.037171952
28	0x3cee602d	0.029098595
29	0xbcefa202	-0.029252056
30	0xbb205e24	-0.0024470175
31	0xbc8f6867	-0.017505838
32	0x3c96d5bb	0.018412462
33	0xbbcd6c1c	-0.006268991
34	0x3d3c654c	0.04599504
35	0xbb37574c	-0.0027975617
36	0x3d396f39	0.045272086
37	0xbcefb908	-0.029263034
38	0xbc65a220	-0.014015704
39	0x3c8c21cb	0.017105957
40	0x3d5c4547	0.053777006
41	0xbca0a7a0	-0.01961118
42	0x3d35484d	0.044258405
43	0x3c2e96ea	0.010656098
44	0x3cf98aae	0.030461635
45	0xbaa4d9f3	-0.0012577161
46	0x3c674268	0.014114954
47	0xbd1e9518	-0.038716406
48	0xbd3cb1bd	-0.046067942
49	0xbc89121d	-0.01673227
50	0x3c171e1c	0.009223487
51	0xbd4aa4ee	-0.049473695
52	0x3ccf2328	0.025285318
53	0x3ca83b80	0.020536184
54	0x3cf389cc	0.029728793
55	0xbc4feb44	-0.012690369
56	0xbd189493	-0.037251066
57	0xbcebbfcd	-0.028777981
58	0xbc62a040	-0.013832152
59	0xbd19ba79	-0.03753135
60	0x3d828804	0.06373599
61	0x3bfc1a3d	0.0076935575
62	0xbca99944	-0.020702966
63	0xbcf4a735	-0.029864887
64	0xbcc1c633	-0.023654079
65	0xbcbf6666	-0.023364257
66	0x3c91cc01	0.017797472
67	0xbc997087	-0.018730415
68	0xbc7207a9	-0.014772334
69	0x3c90234c	0.017594956
70	0xbba93ebc	-0.005164949
71	0x3cb83b0f	0.022489099
72	0x3c66abe3	0.014079067
73	0x3d307f79	0.043090317
74	0x3c66fe6f	0.014098748
75	0xbd2e02ed	-0.04248326
76	0xbd426ae2	-0.047465213
77	0xbd50253b	-0.050816756
78	0xbc9d1fba	-0.019180167
79	0x3c9f7db5	0.019469121
80	0xbb2bc504	-0.002620996
81	0x3cedd323	0.029031342
82	0xbd250fdb	-0.040298324
83	0x3d640576	0.05566927
84	0x3cb17aff	0.021665094
85	0x3b74c241	0.003734723
86	0x3c31aa86	0.010843879
87	0xbd8654b6	-0.06559126
88	0xbcdf8dd9	-0.027289318
89	0xbc65438b	-0.013993154
90	0xbce4ba7f	-0.02792096
91	0xbcacf4e8	-0.021112874
92	0xbd2f9980	-0.042871
93	0xbc9cedfb	-0.019156447
94	0x3cf31608	0.029673591
95	0x3ba3ef92	0.0050029242
96	0x3b768932	0.0037618396
97	0xbcc36d68	-0.02385588
98	0xbce77e07	-0.028258337
99	0x3d0e173e	0.034690134
100	0xbc2036af	-0.009778663
101	0xbc8bbe15	-0.017058412
102	0x3d1ab391	0.037768904
103	0xbc88f29e	-0.016717251
104	0xbccd22db	-0.025041034
105	0x3b97c772	0.00463193
106	0xbd12056d	-0.035649706
107	0xbb084a04	-0.002079607
108	0xbd39cd53	-0.045361828
109	0x3d149210	0.03627211
110	0xbc836e9f	-0.01604396
111	0xbb65f94e	-0.0035091224
112	0xbd2f225c	-0.042757377
113	0xbc2acd96	-0.010424992
114	0x3ca4aec3	0.020102864
115	0x3ccdbe0a	0.025115032
116	0x3d02bbeb	0.031917494
117	0x3ba6b13b	0.0050870455
118	0x3cb75a6b	0.022381982
119	0xbd0b5a97	-0.03402194
120	0xbcc4ff86	-0.024047624
121	0x3c01b41d	0.0079164775
122	0xbb732283	-0.0037099428
123	0xbc8bb1c7	-0.017052544
124	0xbd1182da	-0.03552518
125	0xbd49a78f	-0.049232062
126	0xbd0d00e7	-0.03442469
127	0xbd0aec4c	-0.033916757
128	0x3cb5ebd4	0.022207178
129	0xbbd8924e	-0.0066092378
130	0x3d3950ff	0.04524326
131	0xbd0cdd2a	-0.034390606
132	0x3c07cdaf	0.008288785
133	0x3c3a29cb	0.011362503
134	0xbd076118	-0.03305158
135	0x3d4479f3	0.047967862
136	0x3d4983bb	0.049197894
137	0xbbb0c1d5	-0.0053942003
138	0xbd4af551	-0.04955036
139	0x3c3d6dc0	0.011561811
140	0xbac5b6ae	-0.001508435
141	0x3cb6f6df	0.022334514
142	0x3d256b89	0.040385757
143	0x3b2fe4ff	0.0026839373
144	0xbade038b	-0.0016938312
145	0xbc26ffe2	-0.010192843
146	0x3c0c76a6	0.00857321
147	0x3d1968a2	0.0374533
148	0xbc9985ce	-0.01874056
149	0x3bfd826a	0.007736494
150	0xbcabf51f	-0.020990906
151	0xbcf5feed	-0.030028785
152	0xbd0a1eb4	-0.033720687
153	0xbd2126e4	-0.03934373
154	0x3d2073b5	0.039172847
155	0xbc058349	-0.008148977
156	0xbd439bd6	-0.04775604
157	0x3d3148f6	0.04328247
158	0xbc1a7ceb	-0.009429197
159	0x3c4131b6	0.011791637
160	0xbd1e55d5	-0.038656075
161	0xbca85978	-0.020550475
162	0x3c807c18	0.015684173
163	0x3d28d378	0.041217297
164	0xbc9f8cef	-0.019476382
165	0x3d281a1a	0.041040517
166	0x3d33e2fb	0.043917637
167	0x3c6aff5e	0.014343111
168	0xbd09042b	-0.03345124
169	0xbc06c6b7	-0.008226088
170	0xbd53f7ea	-0.0517501
171	0xbba92bab	-0.0051626763
172	0x3d2b9092	0.04188592
173	0x3ce68ac5	0.028142342
174	0xbc563832	-0.013074921
175	0xbd743368	-0.059619337
176	0xbd2fb210	-0.042894423
177	0xbcaaf7bf	-0.020870088
178	0xbd2309b7	-0.039804187
179	0xbd52bdbe	-0.051450484
180	0xbcc23a0c	-0.02370932
181	0x3ca47547	0.020075453
182	0x3d65a7ea	0.05606834
183	0x3bc933d9	0.006140214
184	0x3bad8721	0.0052956496
185	0x3c3d92a5	0.011570607
186	0xbc811a0d	-0.015759492
187	0x3d40410a	0.046937026
188	0x3cae04cc	0.021242522
189	0xbd202abb	-0.03910325
190	0xbc801695	-0.015635768
191	0x3d2a9718	0.041648
192	0x3a2a31b1	0.000649239
193	0x3b9c41b8	0.0047685765
194	0x3d1ecf30	0.03877181
195	0xbc2345dc	-0.009965386
196	0xbd16482e	-0.03668993
197	0x3bfe8978	0.0077678524
198	0xbcce314c	-0.025169991
199	0xb9d0605a	-0.0003974464
200	0x3ca0d2fd	0.019631857
201	0x3c7aef84	0.015315894
202	0x3c6408c1	0.013918103
203	0xbc998bcd	-0.01874342
204	0x3c5680ea	0.013092259
205	0x3cfc94a5	0.030832598
206	0x3d4f131f	0.050555345
207	0x3d38390e	0.044976287
208	0x3cb56f7a	0.022147883
209	0x3d747263	0.0596794
210	0xbd14f665	-0.036367793
211	0x3c40b778	0.011762492
212	0xbda0dc28	-0.078544915
213	0xbc9c43b2	-0.019075248
214	0x3d324495	0.043522436
215	0x3d0e4270	0.03473133
216	0xbd2b3e69	-0.041807566
217	0xbb57541c	-0.003285653
218	0x3b59ebee	0.0033252197
219	0x3d245961	0.0401243
220	0xbc37127e	-0.0111738425
221	0x3caa40e9	0.020782905
222	0x3c6de395	0.014519592
223	0x3d7398a9	0.05947176
224	0x3d632f6d	0.05546515
225	0x3d386462	0.045017608
226	0x3d02651c	0.031834707
227	0xbd4d807b	-0.050171357
228	0x3d3b1ac2	0.045679815
229	0x3cf4e055	0.029892126
230	0xbc971c33	-0.018446064
231	0xbbf815de	-0.007570966
232	0x3c75d43f	0.015004217
233	0x3c5138d3	0.012769896
234	0x3c28455b	0.010270442
235	0xbbd433d0	-0.006475903
236	0x3d6f7534	0.058461383
237	0xbbc4f293	-0.0060103624
238	0xbd4eb064	-0.050461188
239	0xbbd24227	-0.0064165774
240	0x3cb6bbe9	0.0223064
241	0xbc83d14d	-0.016091013
242	0x3c059fab	0.008155744
243	0x3ab46493	0.0013762884
244	0x3cb850a5	0.022499392
245	0xbcc5b86f	-0.024135796
246	0x3ceca86c	0.028888904
247	0xbd2df1c1	-0.042466883
248	0xbc6c7817	-0.0144329285
249	0xbc3a2ef1	-0.011363731
250	0x3ccac66e	0.024752822
251	0xbc309ffd	-0.010780332
252	0x3d4b3696	0.049612604
253	0x3d4770dc	0.048691615
254	0xbd27d2d0	-0.04097253
255	0xbc6b7bac	-0.014372747

fc_layers.0.bias f4 [120]
0	0x3b4d1768	0.0031294469
1	0x3d10849a	0.03528271
2	0x3c7886a5	0.0151688205
3	0x3c64b167	0.013958312
4	0x3bad7a13	0.0052940934
5	0xbc133085	-0.008983736
6	0x3c59b6b7	0.0132881915
7	0xbb56b1bd	-0.003275975
8	0xbbb550c1	-0.0055333083
9	0x3d427f1a	0.047484495
10	0x3d17280a	0.03690342
11	0x3d2a1695	0.041525442
12	0xbc6d722f	-0.0144925555
13	0x3cd94871	0.0265238
14	0xbbe7fcf6	-0.007079716
15	0xbcdba1ec	-0.026810609
16	0xba705236	-0.0009167524
17	0x3c41bd95	0.011824985
18	0xbd20994a	-0.039208688
19	0x3d2761d7	0.04086479
20	0x3cd0a5c0	0.02546966
21	0xbd43ca12	-0.04780013
22	0xbc7915df	-0.015202968
23	0xbd2cfd18	-0.042233557
24	0x3c221bfe	0.009894369
25	0xbc4c56e8	-0.012471892
26	0x3cacf743	0.021113997
27	0x3d1fa3ab	0.038974445
28	0x3d34a814	0.044105604
29	0x3d41fecf	0.047362145
30	0x3c89d756	0.016826313
31	0x3cefa547	0.029253615
32	0x3c06f7cc	0.00823779
33	0x3d48801e	0.048950307
34	0x3c871677	0.016490204
35	0xbc9d3531	-0.019190403
36	0x3d4829ec	0.048868105
37	0xbd19720b	-0.037462275
38	0xbc5f757d	-0.013638851
39	0xbca9821f	-0.02069193
40	0x3ccd77d4	0.025081553
41	0x3d2505bd	0.040288676
42	0xbcc5cc68	-0.02414532
43	0x3cc4a393	0.02400378
44	0xbc845428	-0.01615341
45	0xbd1ad166	-0.037797354
46	0x3d411292	0.04713685
47	0xbd37f162	-0.044907935
48	0x3c528102	0.012848141
49	0x3c0ea926	0.00870732
50	0xbd0c7d17	-0.034298982
51	0xbcc0e3b1	-0.023546072
52	0xb9edb5b4	-0.00045339542
53	0x3d0fb719	0.035086725
54	0xbc9d0b10	-0.019170314
55	0x3d4869cf	0.048929032
56	0x3d36a1ed	0.04458802
57	0x3c947bc3	0.01812542
58	0x3caf7938	0.021420106
59	0x3c8b5515	0.017008344
60	0xbb97e4f6	-0.0046354486
61	0x3d44e7ba	0.048072554
62	0xbca4bf41	-0.020110728
63	0x3d363a25	0.044489045
64	0x3c794ceb	0.015216093
65	0xbcabf228	-0.020989493
66	0xbcf10e6e	-0.029425826
67	0x3ba85158	0.00513665
68	0x3ce73edb	0.028228214
69	0xbd38f63d	-0.045156706
70	0x3d486ead	0.048933674
71	0x3ce15acc	0.027509116
72	0x3cca60b7	0.02470432
73	0x3c6a6241	0.014305652
74	0xbb530781	-0.0032200518
75	0xbd0e71ec	-0.034776613
76	0x3d03159f	0.03200304
77	0xbc939e53	-0.01801983
78	0xbd416a6f	-0.047220644
79	0x3d3b0e99	0.04566822
80	0xbcddb99a	-0.02706604
81	0x3d25cc40	0.04047799
82	0x3d3a445b	0.045475345
83	0xbd3d1d0b	-0.046170276
84	0x3c886272	0.016648505
85	0xbcd5f913	-0.026119744
86	0x3cf0e84b	0.02940764
87	0x3c2af1c9	0.010433623
88	0xbd42ca17	-0.04755601
89	0x3cb5c367	0.022187902
90	0xbd3b19a5	-0.045678753
91	0xbd1a4243	-0.03766085
92	0xbb8fef69	-0.0043925536
93	0x3c8ae9ca	0.016957182
94	0xbc81fe5b	-0.015868356
95	0x3d567b42	0.05236364
96	0x3d3dc152	0.046326943
97	0xbd5512a2	-0.052019723
98	0xbb6bd750	-0.003598649
99	0xbbfd29a6	-0.007725912
100	0xbcf08cbe	-0.029363986
101	0xbd41099d	-0.04712831
102	0x3d03f3cb	0.03221492
103	0xbd3a9adc	-0.04555784
104	0xbc0b842c	-0.008515399
105	0xb9865659	-0.00025622806
106	0xbc97ecec	-0.01854559
107	0xbb0a1484	-0.0021069357
108	0xbb69f615	-0.0035699655
109	0xbd2f99a4	-0.042871132
110	0xbc8c5548	-0.017130509
111	0x3d19c9e5	0.037546057
112	0x3cc1148c	0.023569368
113	0xbccd7e31	-0.025084587
114	0x3d05d3eb	0.032672804
115	0xbd284360	-0.04107988
116	0x3d4da9d5	0.050210793
117	0xbc4aafcf	-0.012371018
118	0x3c96c506	0.018404495
119	0x3c9f375a	0.019435573

fc_layers.2.weight f4 [84, 120]
0	0xbd46f4dc	-0.04857336
1	0xbdbb011b	-0.0913107
2	0xbc261939	-0.0101378495
3	0x3d20e7b4	0.03928347
4	0x3d01e962	0.03171671
5	0x3dd07589	0.10178668
6	0xbdb48302	-0.0881405
7	0xbd99d06a	-0.07510455
8	0xbb384549	-0.002811747
9	0x3db42c6f	0.087975375
10	0xbce018af	-0.02735552
11	0x3d473295	0.048632223
12	0xbd7c8711	-0.061652247
13	0x3c237cee	0.009978516
14	0x3c8bb03a	0.017051805
15	0xbc71fa89	-0.014769205
16	0xbd9c9b7b	-0.07646843
17	0x3cf75e93	0.030196464
18	0x3db3c7fd	0.08778379
19	0xbd3c663b	-0.045995932
20	0x3c425400	0.0118608475
21	0xbd500626	-0.050787114
22	0x3d94906e	0.0725411
23	0x3d318522	0.043339856
24	0xbdd7fb7c	-0.10546014
25	0xbd1676b1	-0.036734287
26	0xbc7193f5	-0.014744748
27	0xbdafd8e0	-0.085862875
28	0xbcb3c073	-0.021942353
29	0x3cee2f68	0.02907534
30	0xbd8a243b	-0.06745192
31	0x3c93cccc	0.01804199
32	0xbcafbedc	-0.021453314
33	0x3d93d25b	0.072178565
34	0x3c19513d	0.009357748
35	0x3d91f2d0	0.07126391
36	0xbd8bc7c7	-0.06825214
37	0x3d9634e0	0.07334304
38	0xbd7de84a	-0.061989106
39	0xbbf3c263	-0.007438944
40	0x3d6b4da3	0.057447087
41	0x3d2bf78e	0.041984133
42	0xbcab1291	-0.020882877
43	0xbd3886ee	-0.045050554
44	0x3cf4e85b	0.029895952
45	0x3d5d5c48	0.054043084
46	0xbd5f538f	-0.054523047
47	0xb82236c4	-3.8674814e-05
48	0xbda73d74	-0.08166018
49	0xbc9ccd9c	-0.019141011
50	0xbd1d6a98	-0.038431734
51	0xbc8b10ba	-0.01697575
52	0xbd5fe841	-0.054664854
53	0x3db18a91	0.086690076
54	0xbd9ad6e4	-0.075605184
55	0x3bd80785	0.0065926933
56	0x3daa5217	0.08316439
57	0xbb21ee82	-0.0024708812
58	0xbda7da72	-0.08195962
59	0x3dad91ad	0.08475051
60	0x3cbfb2a2	0.023400608
61	0xbd96d331	-0.073645
62	0x3d5e6781	0.054297928
63	0xbd791b9c	-0.060817346
64	0xbd2831af	-0.041063007
65	0x3aebe59e	0.0017997508
66	0xbd1f07fa	-0.038825966
67	0x3ccd5864	0.025066562
68	0xbc84c922	-0.016209189
69	0x3d97c93a	0.07411428
70	0x3d0bcdb9	0.03413174
71	0x3d996f98	0.07491988
72	0xbc9f6797	-0.019458575
73	0xbda788e8	-0.0818041
74	0xbd4cb209	-0.049974475
75	0x3c08d598	0.008351706
76	0x3d92f1aa	0.07175
77	0x3c01eebd	0.007930455
78	0xbd4cd67a	-0.05000923
79	0x3d9af6d2	0.075666085
80	0x3d30cf7d	0.043166626
81	0xbe02a08e	-0.12756559
82	0x3d3e51b7	0.046464648
83	0x3d402b48	0.046916276
84	0x3d988f60	0.074492216
85	0x3d825229	0.06363327
86	0xbd2ced80	-0.042218685
87	0xbc7ec1dd	-0.01554915
88	0xbd83dd1f	-0.0643866
89	0xbc485cda	-0.012229169
90	0x3da91ba5	0.08257226
91	0x3d86d0ff	0.065828316
92	0x3cd3de0d	0.025862718
93	0x3d851add	0.064992644
94	0xbd0534c6	-0.03252103
95	0xbc3dc15e	-0.011581747
96	0x3c8a0509	0.016848104
97	0x3d26acfd	0.04069232
98	0x3ccd849a	0.025087643
99	0xbd958a71	-0.07301796
100	0x3db6bfb8	0.08923286
101	0xbc46b061	-0.012127013
102	0x3c52d8dc	0.012869086
103	0x3b993155	0.0046750703
104	0xbdac1bde	-0.08403753
105	0x3d7e676b	0.062110346
106	0xbd9c3cc8	-0.076287806
107	0x3d028bbb	0.03187154
108	0xbb311eaf	-0.0027026345
109	0x3d6b05b6	0.057378493
110	0xbcf3c417	-0.029756589
111	0xbd8edc1e	-0.06975578
112	0x3d59cb26	0.053172253
113	0xbd9dabcd	-0.07698784
114	0xbcd7c1de	-0.02633756
115	0x3d767147	0.060166623
116	0xbdccd6a8	-0.1000188
117	0x3dd3f7ad	0.10349975
118	0x3c98d53c	0.018656366
119	0x3da92b66	0.08260231
120	0xbddb1063	-0.10696485
121	0xbd4e4233	-0.0503561
122	0xbd380499	-0.04492626
123	0x3db0c985	0.08632187
124	0xbde7df1a	-0.1132185
125	0xbd3793c9	-0.044818673
126	0xbd757340	-0.059924364
127	0x3db76577	0.089549
128	0xbcd0746c	-0.02544614
129	0x3dbe4f6b	0.092924915
130	0xbc6f531f	-0.01460722
131	0xbd427d1d	-0.0474826
132	0x3c59efc3	0.013301793
133	0x3d9dbd61	0.07702137
134	0xbd2e5dc0	-0.042569876
135	0x3da949b0	0.08266008
136	0xbba2265e	-0.0049484214
137	0xbc91ce0d	-0.017798448
138	0xbc43997b	-0.011938448
139	0xbdba034b	-0.09082659
140	0xbd5c1c04	-0.053737655
141	0xbc489805	-0.0122432755
142	0x3de7cc85	0.11318306
143	0x3c02123a	0.007938916
144	0xbc3757d2	-0.011190372
145	0xbc9ded80	-0.019278288
146	0x3aedee94	0.0018152767
147	0xbdaa730e	-0.08322726
148	0xbc6c0843	-0.014406267
149	0xbdab92bc	-0.08377597
150	0xbd00e988	-0.031472713
151	0x3d77cdbc	0.060498938
152	0x3d266274	0.040621236
153	0x3d00f2b6	0.031481467
154	0x3d0250dd	0.0318154
155	0xbd3b5b33	-0.04574127
156	0x3ddd9678	0.10819715
157	0x3c15a749	0.009134122
158	0xbb195403	-0.0023396022
159	0xbc221048	-0.009891577
160	0xbd8852e7	-0.06656437
161	0xbdd3b2c9	-0.10336835
162	0x3d44b285	0.048021812
163	0xbda6af90	-0.08138955
164	0xbd19ae82	-0.03751994
165	0xbd3b8033	-0.045776557
166	0x3ce90913	0.02844671
167	0x3dc91fce	0.098205194
168	0xbd8184fb	-0.06324192
169	0xbe0997da	-0.13436833
170	0x3d50799b	0.050897222
171	0x3d28991b	0.041161638
172	0x3d8f240a	0.06989296
173	0xbd4dd0d3	-0.05024798
174	0x3db08f59	0.086210914
175	0x3d8496e1	0.0647409
176	0x3d4c1ab5	0.049830157
177	0xbd19fd8e	-0.037595324
178	0xbda44907	-0.08021741
179	0x3d36fd1d	0.04467498
180	0x3d935fd7	0.071960144
181	0x3daf289d	0.08552668
182	0x3d9335c4	0.07187989
183	0xbd20aff9	-0.03923032
184	0xbdbc90e0	-0.0920732
185	0x3dd18948	0.102312624
186	0xbdb27e95	-0.0871555
187	0x3da84904	0.082170516
188	0xbcf8c064	-0.030365176
189	0x3d4f19de	0.05056178
190	0x3d3f62ee	0.046725206
191	0xbdc4f8b2	-0.09617747
192	0x3d760364	0.060061827
193	0xbbcae2a3	-0.006191568
194	0xbddb1b88	-0.106986105
195	0xbda57f4b	-0.0808092
196	0x3da6bec0	0.081418514
197	0x3d07d2cc	0.033160016
198	0x3c8022c1	0.015641572
199	0xbd021e59	-0.031767223
200	0x3d846554	0.06464639
201	0xbd8633d1	-0.06552852
202	0x3d406035	0.04696675
203	0xbdb5cffa	-0.08877559
204	0x3dcf999e	0.10136722
205	0x3d2cfd11	0.04223353
206	0x3c864656	0.01639096
207	0xbd5cd375	-0.0539126
208	0xbdc0f330	-0.09421384
209	0xbc034842	-0.008012833
210	0x3cd0c3e3	0.025484031
211	0x3d478e45	0.048719663
212	0xbd9aeceb	-0.0756472
213	0x3bb327a4	0.005467372
214	0xbe03a870	-0.12857223
215	0xbd1b41b1	-0.037904445
216	0xbcf0f040	-0.029411435
217	0xba2c231b	-0.00065665104
218	0x3d318d3c	0.043347582
219	0xbd82ee0b	-0.06393059
220	0xbc600e14	-0.0136752315
221	0x3c4c6a12	0.012476461
222	0x3d513811	0.05107886
223	0x3d946e36	0.072475836
224	0xbc713d18	-0.014724039
225	0x3ddf457a	0.109019235
226	0x3bfb5250	0.0076697245
227	0xbc09109c	-0.008365776
228	0x3caf83e4	0.021425195
229	0xbc922f02	-0.01784468
230	0x3da71a43	0.08159306
231	0x3d2940cb	0.041321557
232	0xbd342e24	-0.043989316
233	0x3dc8532e	0.0978149
234	0xbdc1d322	-0.094640985
235	0x3d21c4b7	0.039494243
236	0xbdcb38eb	-0.099229656
237	0xbc9d2b03	-0.019185549
238	0x3dbd1d25	0.092340745
239	0xbd890a66	-0.066914365
240	0xbc766f25	-0.015041147
241	0x3d88a3c5	0.066718616
242	0xbdba81d3	-0.09106793
243	0xbd4f0577	-0.05054232
244	0xbddab4e5	-0.10679034
245	0x3ce13f21	0.027495923
246	0x3d24427c	0.040102467
247	0x3d925c2e	0.07146488
248	0x3d690407	0.056888606
249	0x3d81355d	0.06309006
250	0x3cd4373c	0.025905244
251	0x3d94fe79	0.07275099
252	0x3d7afd8f	0.06127697
253	0x3cbd7cc7	0.023130788
254	0x3ce58bb3	0.028020715
255	0x3d7d77d4	0.061881855

fc_layers.2.bias f4 [84]
0	0xbdadf440	-0.084938526
1	0x3daea7f1	0.08528126
2	0x3db5149d	0.08841822
3	0x3cdf0472	0.0272238
4	0x3d307268	0.043077856
5	0x3d7c88d1	0.061653916
6	0xbd69daed	-0.05709355
7	0x3cc261c0	0.023728251
8	0x3d1a7280	0.037706852
9	0x3d0efa0c	0.034906432
10	0xbb575b12	-0.0032860679
11	0xbd532780	-0.051551342
12	0xbd91c244	-0.07117131
13	0xbd8b5a81	-0.068043716
14	0x3d909b1b	0.07060834
15	0xbcb3d85f	-0.02195376
16	0x3daeb555	0.0853068
17	0xbd8d4b99	-0.06899185
18	0xbd6c634c	-0.057711884
19	0xbd775fc1	-0.060394052
20	0xbd967737	-0.07346957
21	0xbd8b4751	-0.06800712
22	0xbbe5d53f	-0.0070139463
23	0xbd3a9636	-0.04555341
24	0xbccaaa77	-0.024739487
25	0xbd0b52fe	-0.034014694
26	0xbc56740c	-0.013089191
27	0x3c8486e5	0.016177604
28	0xbd1e9a8c	-0.038721606
29	0x3d978d6b	0.0740002
30	0x3cb358fd	0.021893019
31	0x3baa72b4	0.005201662
32	0xbda9573d	-0.082685925
33	0x3d33f8ad	0.043938328
34	0x3d0a4972	0.03376145
35	0x3d979189	0.074008055
36	0xbdca7113	-0.098848484
37	0xbda62a84	-0.08113578
38	0x3c7ac22a	0.015305081
39	0x3d14d850	0.036339104
40	0x3d6fa0f2	0.0585031
41	0xbc1b5fc1	-0.009483279
42	0xbd99ecc1	-0.0751586
43	0x3d87bc20	0.06627679
44	0x3d22316e	0.03959792
45	0xbdafa144	-0.08575681
46	0xbcc441c1	-0.023957135
47	0x3dc70863	0.097183965
48	0xbca53705	-0.020167837
49	0xbcd146d8	-0.025546476
50	0xbd887c05	-0.0666428
51	0x3dab1b1a	0.083547786
52	0x3d9dbcd6	0.07702033
53	0x3c87d856	0.01658265
54	0x3d8aa7ed	0.067703106
55	0x3bb18bd8	0.005418282
56	0xbc5f573d	-0.013631639
57	0xb80a62ac	-3.299366e-05
58	0x3d2ec783	0.042670738
59	0x3d58faea	0.052973665
60	0x3da532e5	0.08066348
61	0x3d074cb4	0.033032134
62	0x3d5e50de	0.05427634
63	0x3d8d3c01	0.068962105
64	0xbb04250c	-0.0020163683
65	0xbd1d9173	-0.03846879
66	0xbd92ae04	-0.07162097
67	0xbda00969	-0.07814295
68	0x3b1344a9	0.0022471345
69	0x3dbab061	0.09115673
70	0xbdb04b90	-0.086081624
71	0xbd30ef08	-0.043196708
72	0x3a908140	0.0011024848
73	0xbd1553f2	-0.03645701
74	0x3d9b4299	0.07581062
75	0x3dc0d994	0.094165
76	0xbd0098e3	-0.031395804
77	0xbcbe7444	-0.0232488
78	0x3dc1a9dd	0.09456227
79	0xbc12a02d	-0.008949322
80	0x3d942f89	0.07235629
81	0x3dc2b671	0.09507454
82	0x3d857dc8	0.065181315
83	0xbd9e33dc	-0.07724735

fc_layers.4.weight f4 [10, 84]
0	0x3cc86485	0.024461994
1	0xbdfad208	-0.122470915
2	0xbe0604d2	-0.13087776
3	0xbc81f4d9	-0.015863823
4	0xbcfd18bc	-0.030895583
5	0x3da95e9a	0.08269997
6	0xbd0fe4b2	-0.03513021
7	0xbd0503f5	-0.032474477
8	0xbbcbcbe1	-0.0062193726
9	0xbe1e0508	-0.15431607
10	0x3bcf0cb5	0.0063186535
11	0xbd9cb1c9	-0.07651097
12	0xbd8503ab	-0.0649484
13	0xbc37a0cb	-0.01120777
14	0x3dbc2aa2	0.09187819
15	0xbe022a66	-0.12711486
16	0x3e41fb48	0.18943512
17	0x3c5b7268	0.013393976
18	0xbcabc46a	-0.020967681
19	0xbe4d8955	-0.2007192
20	0xbcd4c7f8	-0.025974259
21	0xbe0e7b9c	-0.1391434
22	0xbe121f8d	-0.14269848
23	0x3cc0f70d	0.023555303
24	0xbe03c97e	-0.12869832
25	0x3c79eded	0.01525448
26	0x3dad107a	0.08450408
27	0x3de04b83	0.10951903
28	0xbdbd9c26	-0.092582986
29	0x3e2aab4a	0.16666904
30	0x3e200fac	0.15630978
31	0x3c748c9f	0.014926105
32	0x3d393e0a	0.04522518
33	0xbe111956	-0.14169821
34	0x3aaeb919	0.001333031
35	0x3dd624fb	0.10456272
36	0xbcadf091	-0.021232875
37	0xbda34ad9	-0.079732604
38	0xbbd7ba32	-0.0065834755
39	0xbbe4ec6a	-0.0069861906
40	0x3dd82383	0.10553648
41	0xbdb17831	-0.08665503
42	0x3cf7fdb3	0.03027234
43	0xbd85f769	-0.0654133
44	0xbdf4eb77	-0.11958974
45	0x3de2f25a	0.11081381
46	0x3da69f9a	0.0813591
47	0x3e1a3f8f	0.15063308
48	0xbe3b5992	-0.18295887
49	0x3e056077	0.1302508
50	0x3e26a1b6	0.16272625
51	0x3dca3573	0.09873476
52	0x3c980114	0.018555202
53	0xbdc6c316	-0.097051784
54	0x3b78691b	0.0037904445
55	0x3dba32be	0.090917096
56	0xbdcc4793	-0.09974589
57	0x3bfeb101	0.0077725654
58	0xbcda415b	-0.026642492
59	0xbd9d8463	-0.076912664
60	0xbdbf1b77	-0.093314104
61	0x3de7bcb0	0.11315286
62	0x3d76c6ef	0.06024831
63	0x3dafca39	0.08583493
64	0xbe01f2f4	-0.12690336
65	0xbda41877	-0.08012479
66	0x3d93eb0c	0.07222566
67	0xbcccdecb	-0.02500858
68	0x3d483588	0.048879176
69	0x3dd13ae9	0.10216314
70	0x3d3b65a5	0.045751233
71	0xbd80593f	-0.06267022
72	0xbe423968	-0.18967211
73	0xbd40b12e	-0.04704397
74	0x3da5abd4	0.08089414
75	0xbd8c964a	-0.06864603
76	0xbe141a05	-0.1446305
77	0xbbda128a	-0.006655042
78	0x3cbe902c	0.023262106
79	0xbe1d8fda	-0.15386906
80	0x3c1e2b6c	0.009653907
81	0x3e222a06	0.15836343
82	0x3d8aeb1e	0.06783126
83	0xbd4004f5	-0.046879727
84	0x3d6f47f0	0.058418214
85	0xbe263f7b	-0.16235153
86	0x3e4d2c96	0.2003654
87	0x3d2e2ebd	0.04252504
88	0x3df310da	0.118684486
89	0xbdb86ad8	-0.09004754
90	0xbdd7a5d7	-0.10529678
91	0xbb9137ff	-0.004431724
92	0x3d235c45	0.039882917
93	0x3d39330e	0.045214705
94	0xbbec735d	-0.007215901
95	0x3d0fee54	0.035139397
96	0xbd6aa957	-0.0572904
97	0x3b98d990	0.0046646073
98	0xbdd3523a	-0.10318418
99	0xbc28a018	-0.010292076
100	0x3d4763d3	0.048679184
101	0xbd9e6e42	-0.07735874
102	0xbdd7fc7a	-0.10546203
103	0x3c85c25b	0.016328027
104	0x3d8c2876	0.06843655
105	0x3dbe110e	0.09280597
106	0xbcbd8f99	-0.023139762
107	0x3dbf1fba	0.09332223
108	0x3cb53825	0.022121498
109	0xbd5ca0dc	-0.053864345
110	0xbd9d56a0	-0.07682538
111	0x3d7e3f70	0.062072217
112	0x3c99fdac	0.018797718
113	0xbe476d8c	-0.19475383
114	0x3d8776d7	0.06614464
115	0x3a8c29f9	0.0010693661
116	0x3c4e6400	0.012597084
117	0x3dea20d5	0.114320435
118	0xbc0ceef3	-0.008601892
119	0x3cbea623	0.02327258
120	0xbd90c0ca	-0.070680216
121	0x3db687be	0.089126095
122	0x3b214fd0	0.0024614222
123	0x3d06f29a	0.032946207
124	0x3d7f6d4b	0.06236009
125	0xbcceb94e	-0.025234845
126	0x3caa4162	0.02078313
127	0x3e0ce9f1	0.13761117
128	0x3e22f164	0.15912396
129	0x3cf5fb6c	0.030027114
130	0xbdc50125	-0.09619359
131	0x3e28181b	0.16415446
132	0x3e357fb0	0.1772449
133	0xbd3abfdd	-0.04559313
134	0xbc566b57	-0.013087115
135	0xbe03a318	-0.12855184
136	0xbd5e2ec4	-0.054243818
137	0xbe4f754f	-0.20259593
138	0x3dfdee5b	0.12398978
139	0x3d3266ea	0.043555178
140	0xbd498525	-0.049199242
141	0xbdbc10e3	-0.091829084
142	0xbdafdb8e	-0.085867986
143	0x3d754ff2	0.059890695
144	0xbb71bb92	-0.0036885482
145	0xbe389fd0	-0.18029714
146	0xbd77909a	-0.060440637
147	0x3e018efa	0.12652197
148	0xbd41de82	-0.04733134
149	0x3dd9678d	0.10615454
150	0xbcce2e1c	-0.025168471
151	0x3d1654a3	0.03670181
152	0xbda61876	-0.08110134
153	0xbe90529e	-0.28188032
154	0x3d4313f1	0.04762644
155	0x3e135ae3	0.1439014
156	0x3e008b29	0.12553085
157	0x3d807343	0.062719844
158	0x3be6d64c	0.007044589
159	0xbe20d376	-0.15705666
160	0xbe1a3c49	-0.1506206
161	0xbd2891e4	-0.041154757
162	0x3d916020	0.070984125
163	0xbd10d49c	-0.03535901
164	0xbbd2f813	-0.006438264
165	0xbde2c47a	-0.11072631
166	0x3d758f85	0.059951324
167	0x3ce5db2f	0.028058616
168	0xbd2022b6	-0.039095603
169	0xbe49fa1a	-0.19724312
170	0xbd2a1359	-0.041522358
171	0xbd4c56d9	-0.049887512
172	0x3d8fa5a8	0.07014018
173	0x3dcaecbb	0.09908434
174	0xbd8647c7	-0.06556659
175	0x3e589bc2	0.21153167
176	0x3d18cb14	0.037303045
177	0x3dc46e2f	0.09591328
178	0x3c862eca	0.016379733
179	0x3dba115b	0.090853415
180	0xbd03b4e6	-0.03215494
181	0xbc74504c	-0.014911722
182	0xbe031fae	-0.12805054
183	0x3d88bfcf	0.066772096
184	0x3d533a42	0.05156923
185	0xbd0c0732	-0.03418655
186	0x3d08347d	0.03325318
187	0x3dd4a88b	0.103837095
188	0xbe296861	-0.16543724
189	0xbe11009a	-0.14160386
190	0x3e36657c	0.1781215
191	0xbd11a800	-0.035560608
192	0xbe06a404	-0.13148504
193	0xbcdf2cf8	-0.027243122
194	0x3da0ae93	0.078457974
195	0xbe1bc38f	-0.15211318
196	0xbd91ab84	-0.07112792
197	0xbe0c8d6e	-0.13725826
198	0xbd01eac3	-0.031718027
199	0xbdaf5d51	-0.085627206
200	0x3db5e7f5	0.08882133
201	0x3bf4d39e	0.007471516
202	0x3de30a73	0.110859774
203	0x3cd1748c	0.02556827
204	0x3d10680b	0.035255473
205	0x3c80c0a6	0.015716862
206	0xbcb72090	-0.022354394
207	0xbc9413c0	-0.018075824
208	0x3cb44876	0.022007208
209	0xbdbe2dc8	-0.09286076
210	0xbdcc8b9d	-0.099875666
211	0xbe2df0c4	-0.16986376
212	0x3e1fc206	0.15601358
213	0x3cce1179	0.025154816
214	0x3e00464f	0.1252682
215	0x3e1c08c0	0.15237713
216	0xbdf820c2	-0.12115623
217	0x3da36504	0.079782516
218	0xbe0785da	-0.13234654
219	0x3decaa2e	0.11555897
220	0x3dd10a99	0.102070995
221	0xbd443f21	-0.047911767
222	0xbdd6ba53	-0.10484757
223	0xbdb42246	-0.087956
224	0xbd83deba	-0.06438966
225	0x3d7601d1	0.060060326
226	0xbdb34282	-0.0875292
227	0xbe0ba3ec	-0.1363675
228	0x3a6a5c73	0.00089401676
229	0xba692b02	-0.00088946533
230	0x3e390aca	0.18070522
231	0x3df3bc6d	0.11901174
232	0xbe2e2fb9	-0.17010392
233	0x3dc8aca3	0.09798553
234	0xbdcc2598	-0.09968108
235	0xbd6c52b3	-0.057696056
236	0xbc466099	-0.012107992
237	0x3d13ff47	0.036132123
238	0xbdb1edd4	-0.0868794
239	0x3e1efcf1	0.15526177
240	0xbd9c9d6a	-0.07647212
241	0xbd2055e3	-0.039144408
242	0x3e380cd7	0.17973648
243	0xbd58390a	-0.05278877
244	0xbd2cb380	-0.042163372
245	0x3d5f0119	0.054444406
246	0x3bdc02b6	0.0067141904
247	0xbdd75625	-0.10514478
248	0x3debd200	0.11514664
249	0x3e0ad0c7	0.13556205
250	0x3daa82c7	0.08325725
251	0x3dc5d89d	0.09660456
252	0x3d916dca	0.07101019
253	0x3d44adf2	0.04801745
254	0x3c948bfc	0.018133156
255	0xbd224a18	-0.039621443

fc_layers.4.bias f4 [10]
0	0x3dd9e08b	0.10638531
1	0xbbeed9c3	-0.007289143
2	0xbb928efc	-0.0044726115
3	0x3d704a64	0.058664694
4	0x3cd0270c	0.025409244
5	0x3d30edfb	0.043195706
6	0x3cca0b3c	0.02466356
7	0xbdac665b	-0.0841796
8	0x3be6896b	0.0070354245
9	0x3bb48b92	0.005509802
